…
isplayName":"Giulio Federico","userId":"10999544833244816658"}},"outputId":"b68c96e2-996b-486e-a658-ba7efe873ca9"},"execution_count":null,"outputs":[{"output_type":"stream","name":"stdout","text":["Model: \"model_6\"\n","_________________________________________________________________\n"," Layer (type)                Output Shape              Param #   \n","=================================================================\n"," input_7 (InputLayer)        [(None, 100)]             0         \n","                                                                 \n"," dense_12 (Dense)            (None, 359552)            36314752  \n","                                                                 \n"," leaky_re_lu_12 (LeakyReLU)  (None, 359552)            0         \n","                                                                 \n"," reshape_2 (Reshape)         (None, 53, 53, 128)       0         \n","                                                                 \n"," dense_13 (Dense)            (None, 53, 53, 1024)      132096    \n","                                                                 \n"," conv2d_transpose_4 (Conv2DT  (None, 106, 106, 1024)   16778240  \n"," ranspose)                                                       \n","                                                                 \n"," dense_14 (Dense)            (None, 106, 106, 1024)    1049600   \n","                                                                 \n"," leaky_re_lu_13 (LeakyReLU)  (None, 106, 106, 1024)    0         \n","                                                                 \n"," dense_15 (Dense)            (None, 106, 106, 1024)    1049600   \n","                                                                 \n"," conv2d_transpose_5 (Conv2DT  (None, 106, 106, 1)      50177     \n"," ranspose)                                                       \n","                                                                 \n","=================================================================\n","Total params: 55,374,465\n","Trainable params: 55,374,465\n","Non-trainable params: 0\n","_________________________________________________________________\n"]}]},{"cell_type":"cod
…
